checkpoints/ac_model.pth (torch_old, 25285 bytes, 8 tensors)

std f4 [1, 2]
0	0xbf3fde4d	-0.7494858
1	0xbcb96613	-0.02263168

fc1_body.weight f4 [64, 24]
0	0x3d53d960	0.051720977
1	0x3e9ec0a5	0.3100635
2	0xbe59c621	-0.21266986
3	0x3c684e87	0.014178879
4	0x3df5e19b	0.120059215
5	0xbc83a360	-0.016069114
6	0xbd478200	-0.048707962
7	0x3ea70aa2	0.326253
8	0x3db79747	0.08964401
9	0x3eaf8465	0.34280697
10	0xbd7dc1d5	-0.06195243
11	0xbba3970e	-0.0049923724
12	0xbd19c21f	-0.037538644
13	0xbe848992	-0.25886208
14	0xbdacde33	-0.08440819
15	0x3d2edec9	0.042692933
16	0x3e4e0818	0.20120275
17	0x3ee89f6d	0.45434132
18	0xbd660219	-0.056154344
19	0xbe14c33a	-0.14527598
20	0x3e2ce38d	0.16883679
21	0x3d267f00	0.04064846
22	0x3d24bed3	0.040221047
23	0x3dc5591c	0.09636137
24	0xbdb3ee58	-0.08785695
25	0x3e0f67f6	0.14004502
26	0x3dd1abb0	0.10237825
27	0xbdad751f	-0.08469605
28	0xbe4dd264	-0.20099789
29	0xbe9435c9	-0.28947285
30	0xbe25e8ae	-0.16202042
31	0x3e8fe2df	0.28102776
32	0xbe295121	-0.16534854
33	0x3d9da774	0.07697955
34	0xbe1916cf	-0.14950107
35	0xbd338389	-0.043826614
36	0xbdbe9a9b	-0.093068324
37	0xbe2b65e4	-0.16738087
38	0x3dac6d1a	0.08419247
39	0x3e7c3106	0.24628076
40	0x3af016d0	0.0018317346
41	0x3e0c5cb0	0.13707232
42	0x3d73b60d	0.05949979
43	0xbd2627b1	-0.040565196
44	0xbc9ca206	-0.019120228
45	0xbf135087	-0.5754475
46	0x3e1d7235	0.15375598
47	0x3e8a171d	0.2697076
48	0xbd8ff08d	-0.07028303
49	0xbe88717a	-0.26649076
50	0x3de0d09a	0.109772876
51	0x3e3f4864	0.18679959
52	0x3debba41	0.115101345
53	0x3e346457	0.17616402
54	0x3dedbe3c	0.1160855
55	0xbe0b962a	-0.13631502
56	0x3d1b747f	0.037952896
57	0xbed462d3	-0.41481647
58	0xbdd1397c	-0.102160424
59	0xbde918cf	-0.11381685
60	0x3de06464	0.10956648
61	0x3e801d86	0.25022525
62	0xbda71d4a	-0.08159883
63	0x3d5a4efa	0.053297974
64	0x3db041aa	0.086062744
65	0xbe8c6032	-0.2741714
66	0xbc9717c6	-0.018443953
67	0x3e02750f	0.12739967
68	0x3d960b1d	0.073263384
69	0x3ec5902f	0.38586566
70	0xbe3bf1f2	-0.18354014
71	0x3bad99c8	0.005297873
72	0x3ddce5e3	0.10786035
73	0x3e684143	0.22681145
74	0x3e1a428b	0.15064447
75	0x3e695e47	0.2278987
76	0x3dd49e6c	0.10381779
77	0xbe4ac665	-0.19802244
78	0xbc0676c0	-0.008207023
79	0xbda3a948	-0.07991272
80	0xbe5a16a4	-0.21297699
81	0x3e61814c	0.22021979
82	0x3e2c3f1c	0.1682095
83	0xbe45c92c	-0.19315022
84	0x3e0cf4f4	0.13765317
85	0xbd11652a	-0.03549687
86	0xbca8ab4c	-0.020589493
87	0xbda9ec02	-0.08296968
88	0x3d9b56ed	0.07584939
89	0xbd4cae8e	-0.049971156
90	0x3e40fbbf	0.18846034
91	0x3e33c2a3	0.17554717
92	0x3e86fcc9	0.26364735
93	0x3d28f733	0.041251373
94	0xbdb50a76	-0.08839886
95	0xbd76239b	-0.06009255
96	0x3dca0bb3	0.09865513
97	0x3e0b025a	0.13575116
98	0xbe0edaf6	-0.13950714
99	0x3df4e3ce	0.11957513
100	0x3e4f99d6	0.20273528
101	0x3de1775c	0.11009094
102	0xbd8de06a	-0.06927569
103	0x3e3e3283	0.18573956
104	0xbe138821	-0.14407398
105	0x3e84ac0e	0.25912517
106	0xbdc5c9e3	-0.096576475
107	0x3d72ac60	0.05924642
108	0x3d6ceecf	0.057844933
109	0xbdb6d3e8	-0.08927137
110	0xbcd8b8d9	-0.02645533
111	0x3eacf6af	0.33781955
112	0xbb1cb9e9	-0.0023914522
113	0x3f1f833f	0.6230964
114	0x3e531add	0.20615716
115	0xbdc75555	-0.09733073
116	0x3e08ceb9	0.13360108
117	0xbe8150c9	-0.25256947
118	0x3dc4b79b	0.096053325
119	0x3dfc58ad	0.12321601
120	0x3d7112ed	0.05885594
121	0x3d99280e	0.07478343
122	0xbd1ddace	-0.038538747
123	0xbe1181a3	-0.14209609
124	0xbe51e758	-0.20498407
125	0xbebb99ca	-0.3664077
126	0x3c2331c0	0.009960592
127	0xbead1d58	-0.3381145
128	0xbd6ff1f4	-0.058580354
129	0xbe10e8bb	-0.1415128
130	0xbcfaf2ff	-0.030633448
131	0xbc8ee473	-0.017442917
132	0xbd354575	-0.044255693
133	0xbe525de4	-0.20543629
134	0x3e22b999	0.15891112
135	0xbda80f5d	-0.08206055
136	0x3c99ed8d	0.01879003
137	0xbd4c75d7	-0.04991707
138	0x3ddef170	0.10885894
139	0x3cf502ce	0.029908564
140	0x3ec485b5	0.3838326
141	0x3c49598b	0.012289415
142	0x3e85cf4f	0.26134726
143	0xbdeac9d9	-0.11464281
144	0xbe530a5f	-0.20609425
145	0xbd0edd65	-0.034879107
146	0x3e2fe7c8	0.17178261
147	0x3e094481	0.13405038
148	0xbe8f0c39	-0.27939013
149	0xbea64482	-0.32474142
150	0xbe2208fa	-0.15823737
151	0xbd172eef	-0.036909994
152	0xbd920cf8	-0.0713138
153	0x3e45dcf9	0.19322576
154	0x3d438981	0.047738556
155	0xbd33e08b	-0.043915313
156	0xbb819d86	-0.003955546
157	0xbec296d9	-0.38005713
158	0xbdd89fd6	-0.10577361
159	0x3d8fbcbb	0.07018419
160	0xbd9d9835	-0.07695047
161	0x3d90fa0f	0.07078945
162	0xbe78e284	-0.24305159
163	0xbd812229	-0.06305344
164	0xbe0117a9	-0.12606682
165	0xbe913a28	-0.28364682
166	0xbe1c4681	-0.1526127
167	0x3e42a663	0.19008784
168	0xbe1cfc0d	-0.15330525
169	0x3e1a00a0	0.15039301
170	0x3e394c5a	0.18095532
171	0xbed12c59	-0.40854147
172	0x3e7f5c27	0.24937497
173	0xbe22a231	-0.15882184
174	0xbe3b27ee	-0.1827695
175	0xbe48d7b7	-0.19613539
176	0x3cba65c5	0.022753606
177	0x3ce6acf9	0.028158652
178	0x3e0ade21	0.13561298
179	0xbea8823e	-0.32911867
180	0x3e0d2fc2	0.1378775
181	0xbe89b14a	-0.26893073
182	0x3df1fa6c	0.11815342
183	0xbddb8392	-0.107184544
184	0x3e1fbe2d	0.1559989
185	0x3e2e5646	0.17025098
186	0xbd0c187d	-0.03420304
187	0xbe45fd6a	-0.19334951
188	0xbb7d624e	-0.003866333
189	0xbdcb6c99	-0.09932823
190	0x3e353387	0.17695437
191	0xbc3029b9	-0.010752135
192	0xbdd23b50	-0.10265219
193	0x3e3229fc	0.17398828
194	0xbdb5f3c9	-0.08884389
195	0x3d52c719	0.051459406
196	0x3d8178b0	0.063218474
197	0x3d084c90	0.03327614
198	0xbd88600f	-0.06658947
199	0x3e2332c7	0.15937339
200	0x3d8d3652	0.068951264
201	0x3ec830d8	0.39099765
202	0xbe150159	-0.14551295
203	0x3b65069f	0.0034946573
204	0x3d18842d	0.037235428
205	0x3db28a57	0.087177925
206	0xbd844657	-0.06458729
207	0x3ea1b15a	0.3158062
208	0x3e0beeac	0.13665265
209	0x3eae0801	0.33990481
210	0x3c17b67e	0.009259818
211	0xbcad1504	-0.021128185
212	0x3e3e0146	0.18555173
213	0xbdc6bee2	-0.09704377
214	0x3c191bef	0.009345039
215	0x3d396b12	0.045268126
216	0xbe4df199	-0.20111693
217	0x3d759d5b	0.05996452
218	0x3e2ff21f	0.17182206
219	0xbe80462f	-0.25053546
220	0xbd8fda17	-0.07024019
221	0xbcbacabb	-0.022801748
222	0x3da556fb	0.08073231
223	0xbda1ffab	-0.07910093
224	0xbe491ea2	-0.19640592
225	0x3e8e2543	0.27762803
226	0xbdc9dd5b	-0.09856673
227	0xbc91549c	-0.01774054
228	0xbcfc80e6	-0.030823182
229	0xbea46535	-0.32108465
230	0x3d48f294	0.049059466
231	0x3e559234	0.20856553
232	0x3b86dcc0	0.004115671
233	0x3eb6b756	0.3568675
234	0x3e1b9587	0.15193759
235	0xbdce9cf5	-0.10088531
236	0x3e4acdce	0.19805071
237	0xbef5e09e	-0.48022932
238	0xbd7377d0	-0.059440434
239	0x3db4a3cb	0.088203035
240	0x3e2fa312	0.1715205
241	0xbd856493	-0.06513324
242	0xbdcae96f	-0.09907805
243	0xbd13ae30	-0.03605479
244	0x3d241bb9	0.0400655
245	0xbe1120b1	-0.14172627
246	0x3de9e6e3	0.11420991
247	0xbe521a0d	-0.2051775
248	0x3d1c01a0	0.038087487
249	0xbeb6af90	-0.3568082
250	0xbdc177cd	-0.09446678
251	0xbd82aa2c	-0.06380114
252	0x3cb8352d	0.022486294
253	0x3dee4156	0.116335556
254	0xbddd7c8f	-0.10814773
255	0xbe2a435f	-0.16627263

fc1_body.bias f4 [64]
0	0xbe3f9e00	-0.18712616
1	0x3d24f7a1	0.04027522
2	0x3dd64ac3	0.104634784
3	0xbd6c0018	-0.057617277
4	0x3d567fab	0.052367847
5	0xbe13a693	-0.14419012
6	0x3da6ca0e	0.081440076
7	0x3e01cc1e	0.12675521
8	0xbdebc914	-0.11512962
9	0x3e2f8640	0.17141056
10	0x3cc64965	0.02420492
11	0xbe746774	-0.23867589
12	0xbe8929c6	-0.26789683
13	0xbbcefb2c	-0.006316563
14	0xbe2ebbd7	-0.17063843
15	0xbd3b42da	-0.04571805
16	0x3e123841	0.14279272
17	0xbbed32f3	-0.0072387396
18	0xbcb42051	-0.021988066
19	0xbcce95f5	-0.02521799
20	0xbe615e99	-0.22008742
21	0xbdab3f13	-0.0836164
22	0xbe57da66	-0.21079406
23	0xbe7aaefd	-0.24480815
24	0xbd7175f3	-0.058950376
25	0x3d19153d	0.03737377
26	0xbe119507	-0.14217006
27	0xbe52b139	-0.20575418
28	0xbd0c8eae	-0.034315757
29	0xbea1bc07	-0.31588766
30	0xbcd247d4	-0.025669016
31	0xbeb184de	-0.34671682
32	0xbe9fafdf	-0.31188866
33	0x3db8a617	0.09016054
34	0xbe34df3a	-0.17663279
35	0xbe0942ce	-0.1340439
36	0x3dc80000	0.09765625
37	0xbe1ce431	-0.15321423
38	0xbea0e995	-0.3142821
39	0xbe363e37	-0.1779717
40	0xbdd65701	-0.104658134
41	0xbe4b2fd3	-0.19842462
42	0x3daef329	0.08542473
43	0x3c45fab6	0.0120837
44	0xbc885c12	-0.016645465
45	0xbdd751b2	-0.10513629
46	0xbe2b3ca0	-0.16722345
47	0x3dddcde8	0.10830289
48	0x3c935a39	0.017987357
49	0xbca787cb	-0.020450493
50	0xbebb35a4	-0.36564362
51	0x3d84bcea	0.06481345
52	0xbd80f958	-0.062975585
53	0xbd2eccd1	-0.042675797
54	0x3e051cb9	0.12999238
55	0xbcf25d22	-0.029585425
56	0xbe421b52	-0.18955734
57	0xbdae1765	-0.08500556
58	0x3e7ed3b5	0.24885447
59	0xbdddddfc	-0.10833356
60	0xbe98ca8e	-0.29842037
61	0x3cb0d153	0.021584189
62	0x3e138838	0.14407432
63	0xbe6a10e1	-0.22858001

fc2_body.weight f4 [64, 64]
0	0xbd3f4c62	-0.046703704
1	0xbcced273	-0.025246834
2	0x3d033e63	0.03204192
3	0xbd03eb06	-0.032206558
4	0x3d14b83b	0.03630851
5	0xbe534940	-0.20633411
6	0xbdda2e4b	-0.10653361
7	0x3d243c6c	0.040096685
8	0xbd639cb7	-0.055569377
9	0xb9048ffb	-0.00012642138
10	0xbde2024a	-0.11035593
11	0xbe052121	-0.13000919
12	0xbdec7597	-0.11545866
13	0x3d2121b1	0.03933877
14	0xbd8769b9	-0.06611962
15	0x3c54cd81	0.012988449
16	0x3d399b30	0.045314014
17	0x3cfffde0	0.031248987
18	0xbdacf251	-0.08444656
19	0xbd79cfbb	-0.060989123
20	0xbba51e1a	-0.005038989
21	0xbe115075	-0.14190848
22	0xbe24bfcd	-0.16088791
23	0x3e46bbe9	0.1940762
24	0x3d896e3a	0.06710477
25	0xbd9184d7	-0.07105415
26	0x3d8ed917	0.06975
27	0xbd4a1a52	-0.049341507
28	0x3c69166a	0.014226535
29	0x3dbd9a88	0.0925799
30	0xbd5a5773	-0.053306054
31	0xbd299ca3	-0.041409146
32	0x3c755396	0.014973542
33	0x3d96a91d	0.073564745
34	0xbdce3503	-0.10068705
35	0xbe386eb7	-0.18010984
36	0x3d6bf3bc	0.05760549
37	0x3de40b1e	0.11134933
38	0x3c5e65c3	0.013574067
39	0xbe222f86	-0.15838441
40	0x3dafec4b	0.08589991
41	0xbd0434e2	-0.032276995
42	0xbe086797	-0.13320766
43	0xbe44d17b	-0.19220535
44	0x3e0ce34b	0.1375858
45	0x3ce4def8	0.027938351
46	0xbe06e6c0	-0.13173962
47	0xbc39cf47	-0.011340923
48	0xbde717c9	-0.112838335
49	0xbd83339b	-0.06406327
50	0xbd761520	-0.06007874
51	0x3cb98dcd	0.022650624
52	0xbdcd9aeb	-0.10039314
53	0xbe89c35e	-0.26906866
54	0x3de91f44	0.113829166
55	0x3d831fe3	0.06402566
56	0xbd10804e	-0.03527861
57	0xbd768f67	-0.060195353
58	0x3db550e7	0.088533215
59	0xbc352363	-0.0110558
60	0xbe19c78f	-0.15017532
61	0xbe4a34fc	-0.19746774
62	0xbdb6f55f	-0.089335196
63	0x3d526679	0.051367257
64	0xbc7fed1f	-0.015620499
65	0x3e253163	0.16132121
66	0xbdea3785	-0.11436371
67	0xbd5798b5	-0.052635867
68	0x3e37d864	0.1795364
69	0xbc8350d6	-0.016029757
70	0x3e405b13	0.18784742
71	0xbdbde083	-0.09271338
72	0xbd3ba54f	-0.045811947
73	0x3dc9a6c6	0.09846263
74	0xbd92a8d7	-0.0716111
75	0xbdca3ad2	-0.098745
76	0x3da7cf5b	0.08193847
77	0xbe22eee9	-0.1591145
78	0xbe5c3d6b	-0.21507804
79	0xbd3c189c	-0.045921907
80	0xbe13c532	-0.14430693
81	0x3e1d098f	0.15335678
82	0xbe72f640	-0.2372675
83	0xbe3efac0	-0.18650341
84	0xbe0987b0	-0.13430667
85	0x3cd93dbf	0.0265187
86	0xbddbc3aa	-0.10730679
87	0xbdc83b0b	-0.097768866
88	0xbe36c3b8	-0.17848098
89	0x3e2b85ee	0.16750309
90	0xbcd17465	-0.025568197
91	0xbe0c657a	-0.13710585
92	0x3c260aba	0.010134393
93	0xbceff752	-0.029292736
94	0x3dc7f8b2	0.09764232
95	0x3db0969d	0.08622477
96	0xbdb1f71c	-0.086897105
97	0x3d266898	0.040627092
98	0xbe9cde0a	-0.30638152
99	0xbda7f4dc	-0.08201
100	0xbd87d0a6	-0.066315934
101	0xbe481cc6	-0.19542226
102	0xbd229129	-0.039689217
103	0xbcce7f16	-0.025207084
104	0xbe37c306	-0.1794549
105	0xbe9f31b7	-0.31092617
106	0xbc054336	-0.0081337
107	0x3d6111cb	0.05494861
108	0xbe5435c0	-0.20723629
109	0x3b12a35e	0.0022375206
110	0x3e7f4b42	0.24931052
111	0x3d293433	0.041309547
112	0x3d922a83	0.07137015
113	0xbdfe0123	-0.124025606
114	0x3c59fafb	0.013304467
115	0x3da0db5c	0.078543395
116	0xbd5240de	-0.051331393
117	0x3e836918	0.25666118
118	0xbde3582f	-0.11100804
119	0xbddbefec	-0.10739121
120	0xbd888b0f	-0.06667148
121	0xbcc03155	-0.023461023
122	0xbd599ae4	-0.05312623
123	0xbca579da	-0.020199705
124	0xbd8d7bd9	-0.06908388
125	0x3d9fc9a2	0.0780213
126	0xbce233cf	-0.027612595
127	0xbd8e4d73	-0.06948366
128	0xbdca0eef	-0.098661296
129	0xbd3cd374	-0.046100095
130	0xbd352daf	-0.04423302
131	0x3c24c9b9	0.01005786
132	0xbcc53b6b	-0.024076184
133	0x3e051851	0.12997557
134	0x3dd8b608	0.10581595
135	0xbe0b09e7	-0.13577996
136	0xbdf3c420	-0.11902642
137	0xbdc57dc0	-0.096431255
138	0x3e357253	0.17719392
139	0xbcf50f52	-0.029914532
140	0xbe800aab	-0.2500814
141	0x3d8d8bb5	0.069114126
142	0x3c0dcf63	0.008655402
143	0xbd5508b2	-0.052010246
144	0xbd4d268a	-0.05008558
145	0xbe5480dc	-0.20752281
146	0x3ccd1a1b	0.025036862
147	0xbd5d071c	-0.05396186
148	0xbe0bbdab	-0.13646571
149	0xbe05f48c	-0.13081568
150	0xbd7289c6	-0.059213422
151	0x3df83de6	0.12121181
152	0x3de801a2	0.113284364
153	0xbdbf8f43	-0.09353497
154	0x3db0fe88	0.08642298
155	0xbddf085d	-0.10890267
156	0xbe0e3d60	-0.138906
157	0x3c2f6bd5	0.0107068615
158	0x3d4d80b0	0.050171554
159	0x3d1977c1	0.03746772
160	0xbe4062a5	-0.1878763
161	0xbe043e7e	-0.12914464
162	0xbe179627	-0.14803372
163	0xbdfb50b9	-0.12271256
164	0x3db43dc1	0.08800841
165	0xbd5324f6	-0.05154892
166	0xbd6d022a	-0.057863392
167	0x3e4b492d	0.19852133
168	0x3daa594d	0.08317814
169	0xbd3e6c91	-0.046490256
170	0xbdb355e0	-0.08756614
171	0xbd408392	-0.047000475
172	0xbe0893a6	-0.13337573
173	0xbd2306df	-0.039801475
174	0xbcf04c94	-0.02933339
175	0x3c7abefe	0.015304325
176	0xbd4ee2f6	-0.050509416
177	0xbddd12bb	-0.10794588
178	0xbd2133aa	-0.03935591
179	0xbc94c6b6	-0.018161159
180	0x3dbd8489	0.09253795
181	0x3d2e35dc	0.042531833
182	0xbdcf73da	-0.10129519
183	0xbd86de2f	-0.06585347
184	0x3e19b891	0.15011813
185	0xbe7b1e01	-0.24523164
186	0xbe94f134	-0.29090273
187	0xbe1019b3	-0.14072303
188	0xbdd8862d	-0.10572467
189	0xbd36e388	-0.044650584
190	0x3e66d8da	0.2254366
191	0x3e48711f	0.19574402
192	0x3e0f70df	0.140079
193	0x3e81ba72	0.2533756
194	0xbd7ab707	-0.061209705
195	0xbd89f3f2	-0.06735982
196	0x3daba57f	0.08381175
197	0x3e069ade	0.13145015
198	0x3e0ca887	0.13736163
199	0xbd80966b	-0.0627869
200	0x3d15abee	0.036540918
201	0x3cb04231	0.021515938
202	0xbe02b86d	-0.12765665
203	0x3e23f820	0.16012621
204	0xbd92c395	-0.071662106
205	0xbd175aae	-0.036951713
206	0xbe32eb85	-0.17472656
207	0xbcb6eb07	-0.022328867
208	0xbdbc75e4	-0.09202173
209	0x3e54af81	0.20770074
210	0xbe5a464b	-0.21315877
211	0x3ca8dae2	0.020612184
212	0x3b1bb7f3	0.0023760765
213	0x3e6909dc	0.22757667
214	0xbcb2aeac	-0.021811806
215	0xbc966506	-0.018358719
216	0x3d98b5f3	0.07456579
217	0x3e29e597	0.16591488
218	0x3d10b0fe	0.035325043
219	0xbe0c9e08	-0.13732159
220	0x3c99f807	0.018795026
221	0x3d268288	0.040651828
222	0xbd183e0b	-0.037168544
223	0xbd699a1d	-0.05703174
224	0xbdb26b08	-0.08711821
225	0xbd6250e8	-0.05525294
226	0x3b90b9c8	0.004416678
227	0x3da1db5b	0.07903167
228	0xbe67ce71	-0.22637345
229	0xbc1f2b15	-0.009714861
230	0xbd652121	-0.055939797
231	0x3d929d4f	0.071589105
232	0xbd68c0e5	-0.056824584
233	0xbd7d5472	-0.06184811
234	0xbd272b25	-0.04081263
235	0xbd808c76	-0.06276791
236	0x3d846060	0.064636946
237	0xbd6e11f0	-0.058122575
238	0x3d60db02	0.054896362
239	0x3d9a5d4d	0.07537327
240	0x3d097a99	0.033564184
241	0xbd632893	-0.055458616
242	0xbd8d3799	-0.0689537
243	0x3cad6ea6	0.021170925
244	0xbba060e5	-0.004894363
245	0x3d911b96	0.0708534
246	0x3b7de909	0.0038743636
247	0xbcf498e4	-0.02985806
248	0x3e540062	0.20703271
249	0x3c999258	0.01874654
250	0x3d70b4d5	0.058766205
251	0x3d19709d	0.037460912
252	0x3d611171	0.054948274
253	0x3d2ffcdc	0.042965755
254	0x3df5a697	0.11994665
255	0x3e60c294	0.21949226

fc2_body.bias f4 [64]
0	0xbccb4d32	-0.024817083
1	0x3df38999	0.11891479
2	0x3d57ae03	0.052656185
3	0x3dfd4b3b	0.12367865
4	0xbe39977d	-0.18124194
5	0xbe31acbd	-0.1735105
6	0xbdb2099f	-0.08693241
7	0x3dbf92d3	0.09354176
8	0xbdad1be8	-0.08452588
9	0xbd8a2ad6	-0.067464516
10	0x3d355fe0	0.044280887
11	0xbe1dc013	-0.15405302
12	0xbdaa1795	-0.08305279
13	0xbe23499d	-0.1594605
14	0xbbc46071	-0.005992942
15	0xbd6f2e8a	-0.058393992
16	0xbc8ae74a	-0.01695599
17	0xbbd32f2b	-0.006444832
18	0xbd3a8013	-0.045532297
19	0xbd90824b	-0.070561014
20	0xbd3efa01	-0.04662514
21	0x3dce71ed	0.10080323
22	0x3d0acf56	0.033889137
23	0x3d5b4394	0.053531244
24	0x3dc28339	0.09497685
25	0xbe0d3f54	-0.13793689
26	0xbe260d3a	-0.16215983
27	0xbdb5f8cf	-0.08885347
28	0xbe33da9a	-0.17563859
29	0x3cad32f2	0.021142457
30	0x3e229666	0.15877685
31	0xbafb487a	-0.001917138
32	0xbd83be46	-0.06432776
33	0xbd2cbe95	-0.04217394
34	0xbc97da1b	-0.018536618
35	0xbd70297f	-0.058633324
36	0xbe501ec3	-0.20324235
37	0xbd24066e	-0.040045194
38	0x3c11cfad	0.008899611
39	0x3d90672d	0.07050929
40	0xbda7a49c	-0.081856936
41	0x3dd6104f	0.10452329
42	0xbcb389ba	-0.02191626
43	0xbb0bb49a	-0.0021317364
44	0xbd95e79e	-0.07319568
45	0x3db0193c	0.08598563
46	0xbdf2795f	-0.11839556
47	0xbdc95727	-0.09831076
48	0xbd84137c	-0.06449029
49	0x3d0019f4	0.03127475
50	0xbd29194e	-0.041283898
51	0x3cd5256b	0.026018819
52	0xbda9e1b2	-0.08295001
53	0x3c4208e2	0.011842938
54	0xbe830b1c	-0.25594413
55	0x3da1c74c	0.07899341
56	0xbe134bbc	-0.14384359
57	0x3df02d2c	0.11727366
58	0x3e019b22	0.12656835
59	0xbe60ed0f	-0.2196543
60	0xbe4f5589	-0.20247473
61	0x3da0c9ec	0.078510135
62	0x3d536f93	0.051620077
63	0xbddbc286	-0.10730462

fc3_actor.weight f4 [2, 64]
0	0xbd98940d	-0.074501134
1	0x3e85ec9e	0.26157087
2	0xbd98148e	-0.074257955
3	0x3d35af10	0.044356406
4	0x3dcb9b3e	0.099417195
5	0x3b8b227d	0.0042460547
6	0x3d15835a	0.03650222
7	0x3d8ce527	0.06879645
8	0xbc09a16b	-0.008400301
9	0xbe8623f9	-0.2619932
10	0x3beb6351	0.0071834703
11	0xbc771398	-0.015080355
12	0xbcb757e5	-0.022380779
13	0x3cf17906	0.029476654
14	0x3ca417f2	0.02003095
15	0xbe29b8da	-0.16574422
16	0xbe24faa9	-0.16111244
17	0xbd9bc2f5	-0.076055445
18	0x3d795e00	0.06088066
19	0x3b81859e	0.003952696
20	0xba8bb64a	-0.0010659185
21	0xbe371397	-0.17878567
22	0x3d257720	0.04039681
23	0x3d9870b4	0.074433714
24	0xbde0717a	-0.10959144
25	0xbd2a84e6	-0.041630648
26	0x3cc1e971	0.023670884
27	0xbd068bf1	-0.032848302
28	0x3d3cdc8c	0.046108767
29	0xbcab8c66	-0.02094097
30	0x3ec3fdde	0.38279623
31	0x3cbe6506	0.023241531
32	0xbdb65c60	-0.08904338
33	0xbc635c8e	-0.013877047
34	0xbd370c14	-0.044689253
35	0xbcef8f71	-0.029243203
36	0x3d5c058a	0.05371622
37	0xbdadf865	-0.08494643
38	0x3cbdc508	0.02316524
39	0x3d875457	0.066078834
40	0x3c89aef7	0.016807063
41	0x3d521e15	0.05129822
42	0x3ceb3262	0.028710548
43	0xbe08fa6b	-0.13376777
44	0xbc4e6d45	-0.012599294
45	0xbd838235	-0.064213194
46	0xbd939c7c	-0.072075814
47	0xbc8e5fb3	-0.017379617
48	0xbcd69418	-0.026193663
49	0x3e08914f	0.13336681
50	0xbd74cc0f	-0.059764918
51	0x3de0fa5a	0.10985251
52	0xbda81575	-0.082072176
53	0x3db48edd	0.088163115
54	0x3b954016	0.004554759
55	0xbe026891	-0.12735201
56	0xbd59a655	-0.053137142
57	0x3e812ddc	0.252303
58	0x3e7a5874	0.24447805
59	0x3cb36527	0.02189882
60	0x3c111f76	0.0088575985
61	0x3e09edee	0.13469669
62	0xbc9ee1a4	-0.019394703
63	0xbcd974b8	-0.026544914
64	0xbdc9d9f7	-0.098560266
65	0x3d2c4d41	0.042065863
66	0x3d7fa9b5	0.062417705
67	0xbdce2049	-0.10064752
68	0x3c4206fa	0.011842484
69	0xbd32f597	-0.043691244
70	0xbe550bbb	-0.20805256
71	0x3dc44f90	0.09585488
72	0xbc38e272	-0.0112844575
73	0x3d2edf01	0.04269314
74	0xbe046cd9	-0.12932147
75	0xbc530324	-0.012879167
76	0xbe0248f5	-0.12723143
77	0x3c8725ab	0.016497454
78	0xbd2e32b7	-0.042528834
79	0x3d165cc3	0.03670956
80	0x3d13acdd	0.036053527
81	0x3d47d5eb	0.048787992
82	0xbdac7760	-0.084212065
83	0x3de93858	0.113877
84	0x3cf6464d	0.030062819
85	0x3d7bcf3b	0.061476927
86	0x3de8d723	0.11369159
87	0x3e2b3e8e	0.16723081
88	0x3deebfe8	0.11657697
89	0x3d1812ea	0.037127413
90	0x3d2d416b	0.042298716
91	0xbc0e5045	-0.00868613
92	0x3ce8b023	0.028404301
93	0x3d6b6403	0.057468425
94	0xbc705ede	-0.014671056
95	0x3e248fe2	0.16070512
96	0xbdbd5e65	-0.0924652
97	0xbc922286	-0.017838728
98	0xbcbc391c	-0.02297645
99	0x3d893a59	0.06700582
100	0xbe12aba3	-0.14323287
101	0x3e073058	0.13202035
102	0x3cd24358	0.025666878
103	0xbc56e83a	-0.013116891
104	0x3dd7436f	0.10510909
105	0xbd8df455	-0.06931368
106	0xbe96ac14	-0.2942816
107	0x3dcb9a74	0.09941569
108	0xbd84573a	-0.0646195
109	0x3e5b13c0	0.21394253
110	0x3e835a70	0.25654936
111	0xbdadb4ab	-0.08481725
112	0x3b41b45a	0.002955696
113	0xbc51c544	-0.012803379
114	0xbe0cd465	-0.13752897
115	0x3d62b272	0.05534596
116	0xbb826463	-0.003979252
117	0xbd3d47fa	-0.04621122
118	0xbab48d83	-0.0013775084
119	0x3deda3df	0.116035216
120	0xbd06ca90	-0.032908022
121	0xbc293fc5	-0.010330145
122	0x3cce448f	0.025179176
123	0xbd80593c	-0.0626702
124	0xbe19d8c6	-0.15024099
125	0xbd94bd5f	-0.07262682
126	0x3d1c6d88	0.038190395
127	0xbb4f1c1c	-0.0031602448

fc3_actor.bias f4 [2]
0	0xbd9cba9a	-0.07652779
1	0x3cdb54b5	0.02677379

fc3_critic.weight f4 [1, 64]
0	0x3d1771f3	0.036973905
1	0x3cd7d231	0.026345344
2	0x3be8f842	0.0071096728
3	0x3cbd4f72	0.023109172
4	0xbba3d31b	-0.004999531
5	0xbc275217	-0.010212443
6	0x3aab431d	0.0013066266
7	0x3bb94eec	0.00565516
8	0xbd587d1c	-0.05285369
9	0x3cff6c8d	0.03117969
10	0x3c642b03	0.01392627
11	0x3c7753d1	0.015095667
12	0xbb44c9a4	-0.0030027414
13	0x3c443710	0.011976019
14	0xbd4a8d86	-0.049451374
15	0x3cb0fe94	0.021605767
16	0xbcbe4abb	-0.023228994
17	0x3a9308be	0.0011217815
18	0x3cd912e4	0.026498266
19	0xbd4c88a3	-0.049934994
20	0x3d844d02	0.064600006
21	0x3cfc4c40	0.030798078
22	0x3acd48f3	0.0015661999
23	0x3d1098e6	0.035302065
24	0x3cae688b	0.021290084
25	0xbb0995fb	-0.0020993936
26	0xbc509c49	-0.012732574
27	0x3c39fa87	0.011351234
28	0xbcdcc3c1	-0.026948811
29	0x3daa6077	0.083191805
30	0x3bccf3ae	0.006254635
31	0x3d0b22e4	0.03396882
32	0xba15b274	-0.00057104905
33	0x3a4478f8	0.00074948324
34	0xbd842f75	-0.06454364
35	0x3d5bd372	0.053668447
36	0x3d15b7b9	0.036552165
37	0x3d01febb	0.03173707
38	0xbd719c29	-0.058986817
39	0x3d51d4a7	0.05122819
40	0x3ce96a41	0.028493049
41	0x3d7d9d83	0.061917793
42	0x3ccba280	0.02485776
43	0x3aa0419a	0.0012226582
44	0x3b23612e	0.002492975
45	0xb8948ce6	-7.083434e-05
46	0x3988e66e	0.00026111625
47	0x3bf30da2	0.0074173966
48	0x3d018ffc	0.031631455
49	0xbbbbdfbc	-0.0057334583
50	0xbc3ad60c	-0.011403572
51	0x3d04556e	0.032308035
52	0xbb610bbf	-0.0034339277
53	0xbd6a7e3b	-0.05724929
54	0xbc614c02	-0.013751032
55	0x3bba3b9a	0.0056833746
56	0xbc58c7d7	-0.013231239
57	0xbb0a46d7	-0.0021099353
58	0x3c404bcf	0.011736824
59	0xbc6517d0	-0.013982728
60	0x3990c5e2	0.00027613254
61	0x3cfaadaa	0.030600388
62	0xbd4e0390	-0.050296366
63	0xbc33e9f7	-0.010981075
